…
h as SVM or logistic regressions.

\subsection{Methodology}
The algorithm has been tested against Adam, [parameter tested ecc, inserisci qui insomma]
\subsection{Training of CNN}
The first model that has been tested is a small convolutional neural network with the following architecture. The total number of parameters is 204,186 when trained on CIFAR10.

\begin{verbatim*}
----------------------------------------------------------------
        Layer (type)               Output Shape         Param #
================================================================
            Conv2d-1           [-1, 16, 30, 30]             448
            Conv2d-2           [-1, 16, 28, 28]           2,320
           Dropout-3           [-1, 16, 14, 14]               0
            Linear-4                   [-1, 64]         200,768
           Dropout-5                   [-1, 64]               0
            Linear-6                   [-1, 10]             650
================================================================
Total params: 204,186
\end{verbatim*}


\begin{figure}[h]
\includegraphics[scale=0.35]{TrainingPlots/CNNmedium1.png}
\includegraphics[scale=0.35]{TrainingPlots/CNNmedium2.png}
\\
\includegraphics[scale=0.35]{TrainingPlots/CNNmedium3.png}
\caption{Training iterations of Cnn network on CIFAR10. Training parameters are all default for SGDB, for Adam lr=$10^{-3}$, weight\_decay=$10^{-2}$}
…
